model/model.onnx (onnx, 302270 bytes, 14 tensors)

mlp/batch_normalization_2/batchnorm/mul_1;deep_fm/StatefulPartitionedCall/StatefulPartitionedCall/mlp/batch_normalization_2/batchnorm/mul_1 i1 [128, 128]
000000 f5 fe 01 f7 e8 01 ff 01 02 ff fe 01 03 00 fe e6
       -11 -2 1 -9 -24 1 -1 1 2 -1 -2 1 3 0 -2 -26
000010 02 de 01 00 01 01 01 04 eb e5 01 03 ec e4 f4 00
       2 -34 1 0 1 1 1 4 -21 -27 1 3 -20 -28 -12 0
000020 ff f8 f4 fb fe 03 05 fd 02 ed f9 fe f6 02 01 f6
       -1 -8 -12 -5 -2 3 5 -3 2 -19 -7 -2 -10 2 1 -10
000030 00 02 fd fc 03 f3 02 ff 01 01 f4 03 03 ea 00 fe
       0 2 -3 -4 3 -13 2 -1 1 1 -12 3 3 -22 0 -2
000040 02 04 e2 02 04 f9 00 f3 02 00 ff ff ff 01 01 00
       2 4 -30 2 4 -7 0 -13 2 0 -1 -1 -1 1 1 0
000050 fb f1 f9 eb 01 02 f4 f7 ec 03 00 04 05 e6 ff 03
       -5 -15 -7 -21 1 2 -12 -9 -20 3 0 4 5 -26 -1 3
000060 01 03 00 04 02 02 db fc df 01 02 ff fd fd ec 04
       1 3 0 4 2 2 -37 -4 -33 1 2 -1 -3 -3 -20 4
000070 02 f1 01 04 03 03 fa f2 01 f9 fc 03 00 03 fe fc
       2 -15 1 4 3 3 -6 -14 1 -7 -4 3 0 3 -2 -4
000080 04 03 0b 10 eb 08 09 02 08 06 05 07 08 ff 0b e2
       4 3 11 16 -21 8 9 2 8 6 5 7 8 -1 11 -30
000090 08 da 0a 0e 07 08 06 09 08 e7 04 07 08 e0 0c 04
       8 -38 10 14 7 8 6 9 8 -25 4 7 8 -32 12 4
0000a0 06 fc 13 0e f2 0c 09 05 08 ed fa 07 f4 06 02 05
       6 -4 19 14 -14 12 9 5 8 -19 -6 7 -12 6 2 5
0000b0 08 08 07 07 06 13 06 16 03 09 fc 10 09 0a 04 0a
       8 8 7 7 6 19 6 22 3 9 -4 16 9 10 4 10
0000c0 05 06 e9 0e 09 03 05 0b 07 08 13 07 03 09 06 01
       5 6 -23 14 9 3 5 11 7 8 19 7 3 9 6 1
0000d0 08 0b 07 f2 00 04 01 06 13 07 11 0a 0a ee 0a 08
       8 11 7 -14 0 4 1 6 19 7 17 10 10 -18 10 8
0000e0 1e 05 06 07 0a 08 12 04 e3 09 08 02 f9 fd ee 07
       30 5 6 7 10 8 18 4 -29 9 8 2 -7 -3 -18 7
0000f0 07 08 0a 0a 09 0b 06 eb 0a f5 10 0a 0b 08 fd ff
       7 8 10 10 9 11 6 -21 10 -11 16 10 11 8 -3 -1

mlp/batch_normalization_1/batchnorm/mul_1;deep_fm/StatefulPartitionedCall/StatefulPartitionedCall/mlp/batch_normalization_1/batchnorm/mul_1 i1 [256, 128]
000000 ea fb 13 e9 00 ff 0c 05 04 f3 09 01 02 00 fa f1
       -22 -5 19 -23 0 -1 12 5 4 -13 9 1 2 0 -6 -15
000010 fd f8 fc fe fe 04 fa fd e6 00 1d 0c 01 09 10 fc
       -3 -8 -4 -2 -2 4 -6 -3 -26 0 29 12 1 9 16 -4
000020 02 f9 e2 0a 08 eb 06 fc fe e0 02 f9 dd 02 fb 03
       2 -7 -30 10 8 -21 6 -4 -2 -32 2 -7 -35 2 -5 3
000030 f5 ee ed 08 f2 01 02 05 04 04 f7 ef 03 ef 06 01
       -11 -18 -19 8 -14 1 2 5 4 4 -9 -17 3 -17 6 1
000040 15 dc d5 fd 03 0f 04 05 0d e0 0a 08 db 00 ee 04
       21 -36 -43 -3 3 15 4 5 13 -32 10 8 -37 0 -18 4
000050 ff 05 df d4 e3 fd fb 04 01 f2 0a 04 06 f8 00 fa
       -1 5 -33 -44 -29 -3 -5 4 1 -14 10 4 6 -8 0 -6
000060 07 08 fa f4 02 e0 09 ed 04 fc ff fa 0f 0b ff ec
       7 8 -6 -12 2 -32 9 -19 4 -4 -1 -6 15 11 -1 -20
000070 09 08 03 01 ed 0c 0f 00 03 e8 07 f7 0b fc e2 f3
       9 8 3 1 -19 12 15 0 3 -24 7 -9 11 -4 -30 -13
000080 e9 2c fd 01 03 e2 0a dc fe e7 00 e2 e5 15 fd fa
       -23 44 -3 1 3 -30 10 -36 -2 -25 0 -30 -27 21 -3 -6
000090 ee 0f dc de e9 12 07 0c e6 f1 02 08 16 fe 0b e6
       -18 15 -36 -34 -23 18 7 12 -26 -15 2 8 22 -2 11 -26
0000a0 d7 01 0d e8 0e e5 05 2d 1c 0f e2 0d e2 e0 0f 0f
       -41 1 13 -24 14 -27 5 45 28 15 -30 13 -30 -32 15 15
0000b0 0c 0b ea e4 e0 de f4 0e ee 09 e0 f6 03 e4 fc dc
       12 11 -22 -28 -32 -34 -12 14 -18 9 -32 -10 3 -28 -4 -36
0000c0 07 ff 05 10 e1 02 e5 07 21 e2 04 0b ed e6 15 fd
       7 -1 5 16 -31 2 -27 7 33 -30 4 11 -19 -26 21 -3
0000d0 dc 08 10 f5 da e5 e9 00 ea e9 01 15 1e e0 2c 01
       -36 8 16 -11 -38 -27 -23 0 -22 -23 1 21 30 -32 44 1
0000e0 fc 03 ea 0f f5 10 00 05 e1 08 01 e4 0a 12 ff e8
       -4 3 -22 15 -11 16 0 5 -31 8 1 -28 10 18 -1 -24
0000f0 08 f2 ea fc 0f 0f fb e5 15 06 e3 03 1b e2 03 ee
       8 -14 -22 -4 15 15 -5 -27 21 6 -29 3 27 -30 3 -18

mlp/batch_normalization/batchnorm/mul_1;deep_fm/StatefulPartitionedCall/StatefulPartitionedCall/mlp/batch_normalization/batchnorm/mul_1 i1 [224, 256]
000000 00 ee d5 e3 db f8 25 f1 0d 33 e7 63 02 ec 1a f2
       0 -18 -43 -29 -37 -8 37 -15 13 51 -25 99 2 -20 26 -14
000010 fd ee 27 02 e6 02 de 0b 26 f2 03 09 f2 f3 24 16
       -3 -18 39 2 -26 2 -34 11 38 -14 3 9 -14 -13 36 22
000020 00 d7 fe 0b f6 16 0e d8 1a cf 16 f9 18 f0 e8 f2
       0 -41 -2 11 -10 22 14 -40 26 -49 22 -7 24 -16 -24 -14
000030 12 e5 10 11 13 09 02 2c f3 29 0f 15 16 0b f5 f9
       18 -27 16 17 19 9 2 44 -13 41 15 21 22 11 -11 -7
000040 f8 1c fa 01 04 0c 25 f3 ec 0d e0 ed 08 08 15 05
       -8 28 -6 1 4 12 37 -13 -20 13 -32 -19 8 8 21 5
000050 0f 18 f8 06 06 e7 fc e4 fe 22 d7 f1 07 0b f3 fb
       15 24 -8 6 6 -25 -4 -28 -2 34 -41 -15 7 11 -13 -5
000060 b8 09 f9 fc 28 0c 29 d4 f7 04 f7 c7 2e 1f 44 f0
       -72 9 -7 -4 40 12 41 -44 -9 4 -9 -57 46 31 68 -16
000070 fe 02 eb 1e 06 15 24 fe f3 01 0f f4 da ef 00 1a
       -2 2 -21 30 6 21 36 -2 -13 1 15 -12 -38 -17 0 26
000080 1a f6 f6 f7 f4 f2 12 12 05 3c 14 11 f5 09 fe 31
       26 -10 -10 -9 -12 -14 18 18 5 60 20 17 -11 9 -2 49
000090 ff e6 21 0c 21 00 06 01 37 20 05 0d eb 16 f1 fa
       -1 -26 33 12 33 0 6 1 55 32 5 13 -21 22 -15 -6
0000a0 f1 fc e5 14 fd 0a e6 45 da f2 fe fb d7 ea eb 0e
       -15 -4 -27 20 -3 10 -26 69 -38 -14 -2 -5 -41 -22 -21 14
0000b0 e1 05 e6 d9 0f 30 f1 fc f7 05 f4 f5 0a e4 d0 11
       -31 5 -26 -39 15 48 -15 -4 -9 5 -12 -11 10 -28 -48 17
0000c0 f6 09 fa f1 e5 2c 05 24 20 08 2c fb c9 f2 d3 05
       -10 9 -6 -15 -27 44 5 36 32 8 44 -5 -55 -14 -45 5
0000d0 18 0d ec 0b 09 f0 15 29 26 12 f5 01 f4 1a 13 26
       24 13 -20 11 9 -16 21 41 38 18 -11 1 -12 26 19 38
0000e0 1d f8 47 26 01 fb f6 d9 31 20 12 07 10 ff ed 07
       29 -8 71 38 1 -5 -10 -39 49 32 18 7 16 -1 -19 7
0000f0 04 0b 03 0e 0b 00 2c 04 14 11 0b 0b f8 22 09 ff
       4 11 3 14 11 0 44 4 20 17 11 11 -8 34 9 -1

mlp/activation_2/Relu;deep_fm/StatefulPartitionedCall/StatefulPartitionedCall/mlp/activation_2/Relu;mlp/batch_normalization_2/batchnorm/add_1;deep_fm/StatefulPartitionedCall/StatefulPartitionedCall/mlp/batch_normalization_2/batchnorm/add_1 f4 [128]
000000 99 b6 4f 3f 46 77 ae 3e cb 59 3c 3e fa 0f 7f 3e
       0.81137997 0.34075373 0.18393628 0.24908438
000010 a9 e3 0b 3d fd 41 a3 3e 3e ea bf 3e 75 aa d0 3e
       0.03415266 0.31886283 0.374834 0.40755048
000020 a8 50 b3 3e 3c 7e a0 3e 68 cb be 3e ab 76 be 3e
       0.35022473 0.3134631 0.37264562 0.3719991
000030 68 33 89 3e 90 96 da 3e 45 38 9d 3e 50 44 9b 3d
       0.26797032 0.42692995 0.30706993 0.07581389
000040 c8 a3 a4 3e f2 1d 95 be 22 06 e3 3e 07 03 54 3e
       0.32156205 -0.2912441 0.44340616 0.2070428
000050 ec 4b 9c 3e da 11 b4 3e c3 6d 9b 3e 52 18 9c 3e
       0.30526674 0.3516987 0.3035718 0.30487305
000060 26 c9 2e 3f d1 d0 9b 3e 8b 63 b4 3e cf 52 87 3e
       0.6827568 0.30432752 0.35232195 0.26430365
000070 23 0e 3f 3f 32 fe c3 bd 46 73 8e 3e c7 68 95 3e
       0.74630946 -0.09569968 0.27822322 0.291815
000080 e1 de a6 3e c9 f6 68 3f 55 f7 b4 3e a1 f6 c6 3e
       0.32591918 0.91001564 0.3534495 0.38860038
000090 32 08 14 3f 5f 80 a8 3e bb 3b a0 3e 56 78 a5 3e
       0.57825005 0.3291044 0.3129557 0.32318372
0000a0 e5 15 34 3e a1 d9 26 be 2e 27 55 3f 9a e2 2b 3f
       0.17586477 -0.16293956 0.8326291 0.6714264
0000b0 60 f5 45 3f 35 13 77 3e b2 52 9d 3e 81 0c 46 3f
       0.7732754 0.2412842 0.30727154 0.7736283
0000c0 d2 93 af 3e 83 eb 85 3e 73 ec 00 3f 15 ca 1f 3f
       0.34292465 0.26156244 0.5036079 0.6241773
0000d0 2c ef 90 3e 44 3a 1c 3f 1d 84 8a 3e 75 97 7a 3e
       0.28307474 0.61026406 0.2705392 0.24471839
0000e0 07 9e ad 3e 10 55 cd 3e 1c 58 22 3f d4 9e 50 3e
       0.33909628 0.4010396 0.63415694 0.20373088
0000f0 6a 11 90 3e a8 91 4f 3f d2 6e c1 3e 6b 81 7f 3e
       0.28138286 0.8108163 0.37779862 0.24951713
000100 ad 84 5d 3e ed 40 d4 3e 21 2b cc 3d 6d 31 eb 3e
       0.21632643 0.41455784 0.09969164 0.45936146
000110 2b 1f 83 3e 9c c8 af 3e f9 42 b3 3e ab 4e 9e 3e
       0.25609717 0.3433274 0.35012034 0.30919394
000120 0c 4e b9 3e fc 0e 7e 3e ab 60 be 3d f9 78 c2 3e
       0.36192358 0.24810404 0.09295782 0.3798292
000130 8a 32 cd 3e 1f b5 ac 3e 69 fe aa 3e 95 6b bc 3e
       0.4007762 0.33731934 0.33397225 0.3680083
000140 d1 bd df 3e d5 03 20 3f 29 76 3b 3f d1 d3 e6 be
       0.43699506 0.6250585 0.73227173 -0.45083478
000150 2c cb 9c 3e ba 6a cf 3e ac 31 45 3f b6 41 ad 3e
       0.30623758 0.40511113 0.7702892 0.33839196
000160 3f 34 46 3f 03 15 7b 3e 6c 07 b5 3e 00 cf b9 3e
       0.7742347 0.24519734 0.35357225 0.3629074
000170 6d 69 48 3e 55 12 30 be 87 88 ec 3e 00 40 c1 3e
       0.19571467 -0.17194493 0.46197912 0.3774414
000180 aa f6 2b 3f c5 78 89 3e 41 5e 85 3e 66 cf 90 3e
       0.67173254 0.26849952 0.26048473 0.28283232
000190 9b b3 b7 3e 60 16 a5 3e 1f 41 13 3f 3a d3 a2 3e
       0.35879216 0.32243633 0.5752124 0.31801778
0001a0 3b 64 d9 3c 75 61 b7 3e 37 7c 35 3f 8d f1 eb 3e
       0.026537051 0.3581654 0.7089266 0.46082726
0001b0 25 a9 33 3f b9 51 42 3f 4e 22 61 be 58 17 59 3e
       0.7017997 0.7590595 -0.21985742 0.21200311
0001c0 18 97 d5 3e 0c 71 98 3e 2c 2a 93 3e 6f 44 97 3e
       0.41716838 0.29773748 0.28743112 0.29544398
0001d0 97 eb a3 3e a8 8f 8e 3e ec 20 46 3f 69 ab 63 3f
       0.32015678 0.27843976 0.77393985 0.88933426
0001e0 a0 1a ac 3e 45 eb 17 3f 8d 5a ad 3e c9 a7 5c 3e
       0.33614063 0.5934337 0.33858147 0.2154838
0001f0 5a 5d 89 3e 31 aa 9b 3e d2 7c 25 3f 6e e1 36 3f
       0.26829034 0.30403283 0.64643586 0.7143773

mlp/activation_1/Relu;deep_fm/StatefulPartitionedCall/StatefulPartitionedCall/mlp/activation_1/Relu;mlp/batch_normalization_1/batchnorm/add_1;deep_fm/StatefulPartitionedCall/StatefulPartitionedCall/mlp/batch_normalization_1/batchnorm/add_1 f4 [128]
000000 c7 e2 3f bf ca b1 94 bf 93 a1 5f 3e 07 72 99 bf
       -0.7495541 -1.1616757 0.2183898 -1.1987923
000010 bf 60 b7 3d 81 6f 88 3e 5d db 55 3e cc 44 09 3f
       0.08954 0.2664757 0.20884462 0.536206
000020 2d e1 b0 3d 80 2c 18 3f bd 1b 58 3e c6 21 30 3e
       0.08636699 0.594429 0.21104331 0.17200384
000030 da 70 f9 3e a5 af 57 3d 68 30 9d bf 04 84 07 bb
       0.4871891 0.052657742 -1.2280397 -0.0020678053
000040 6b e9 c0 3e 90 58 f0 3d f7 f0 10 3f 0c 1f 80 3e
       0.37678084 0.11735642 0.56617683 0.25023687
000050 16 1d 90 3e e8 bb a4 3e 74 bf 1f 3d 08 ca 4b bd
       0.2814719 0.3217461 0.039000943 -0.04975322
000060 b6 9b 85 3e 56 74 4d 3e 7b 5f 80 3f f5 98 b5 3e
       0.2609536 0.2006391 1.0029138 0.3546826
000070 30 6a f5 3e b7 b8 12 3e cd 6b 7c 3e 14 6d db 3e
       0.47932577 0.14328276 0.24650498 0.42856658
000080 92 8c 81 3e 3e 8d e0 3d a7 12 92 3d 69 e3 d3 bf
       0.2530256 0.1096444 0.07132464 -1.6553775
000090 e2 32 a2 3e d0 8f 9c 3d 9e 97 64 3e 5e 37 83 be
       0.31679446 0.076446176 0.22323462 -0.2562818
0000a0 ea 5f 64 3e eb 19 8c bd 89 d3 a3 3e b9 bb 9d 3d
       0.22302213 -0.06840881 0.31997326 0.07701821
0000b0 97 21 18 bf 57 fb 49 3e 25 a7 1f 3e 76 31 0c 3e
       -0.59426254 0.19724785 0.15591104 0.13690743
0000c0 0d fa d7 bf 08 8e 00 3e 3a e6 f1 3d f5 35 f0 3d
       -1.6873184 0.1255418 0.1181149 0.117290415
0000d0 f9 ed 0d 3e c5 8c f6 3e fa 6f 7e 3e 25 49 ea 3e
       0.1386031 0.48154274 0.24847403 0.4575893
0000e0 d4 34 d1 3e 06 27 d4 3d 7c e0 ee 3e 8e 2d ba 3e
       0.40860617 0.10359006 0.46655643 0.3636288
0000f0 60 2a 29 3e b3 87 ff 3e e0 44 7a 3e 2a 1d 23 3e
       0.16520071 0.49908218 0.24440336 0.15929094
000100 bd dd 2d 3f 40 fc 0e 3d 22 c7 51 3d da 14 b3 3d
       0.6791647 0.034908533 0.0512153 0.087442115
000110 58 4e 01 3e 9c 90 8a 3e 05 d9 ce 3e 18 b6 46 3e
       0.12627542 0.27063453 0.40399948 0.19405401
000120 a7 36 9e 3e 18 99 31 be 97 f7 9c 3e 47 80 4e 3d
       0.3090107 -0.17343557 0.30657646 0.050415304
000130 54 65 b3 bc de 4e 93 3e 09 b8 19 3e e4 17 5d 3e
       -0.021898903 0.28771108 0.1501161 0.21591145
000140 e1 9b e8 3e bd 0c 28 bf 2b 2a 5d 3e e4 5e a8 bb
       0.45431426 -0.6564444 0.21598117 -0.005138265
000150 ec d7 7b bd 9c 9c 00 3f 19 4b c1 3e 91 f2 7f 3e
       -0.061485216 0.50238967 0.37752607 0.24994875
000160 f7 ed b0 3e 7b 50 94 bf b7 b3 ca 3e e5 7f e6 3e
       0.34556553 -1.1587061 0.39590237 0.4501945
000170 03 0d c7 3d 00 3a 07 3f d7 51 93 be 5c 40 a0 3d
       0.09719279 0.52822876 -0.28773376 0.078247756
000180 97 1f aa 3e bb a4 15 3e a1 f7 29 3e 42 2a 9c bd
       0.33227226 0.14613621 0.16598369 -0.076252475
000190 99 9c 05 3e 94 f4 d0 bb e1 a7 b6 3e bd 84 66 bd
       0.13048019 -0.0063768122 0.35674956 -0.056278933
0001a0 9e ae af 3d af e7 f0 3e 5f bd a0 3e 89 05 c7 3e
       0.085782275 0.4705176 0.3139448 0.3887141
0001b0 dd db ed 3e 91 44 46 3d 18 89 a1 3e af d8 58 3e
       0.46456805 0.048405234 0.31549907 0.21176408
0001c0 a0 ba f8 3d 99 82 af 3d c6 03 62 3e 81 2d 58 3e
       0.12144971 0.085698314 0.22071752 0.21111108
0001d0 02 ae 87 3d 55 4c 74 3e 25 51 88 3e 99 d0 e4 3c
       0.06624986 0.23857243 0.26624408 0.027931498
0001e0 b4 42 f3 3d 9d 48 55 bd 00 0f 4c 3d 2f 0a 94 3e
       0.11877957 -0.052071203 0.049818993 0.2891402
0001f0 0b b8 40 3c 02 5a c4 3e bb 1c 84 bc 73 37 9f 3d
       0.011762629 0.3834992 -0.016126981 0.07774248

mlp/activation/Relu;deep_fm/StatefulPartitionedCall/StatefulPartitionedCall/mlp/activation/Relu;mlp/batch_normalization/batchnorm/add_1;deep_fm/StatefulPartitionedCall/StatefulPartitionedCall/mlp/batch_normalization/batchnorm/add_1 f4 [256]
000000 36 ee 1a bc 7b 43 8e bf d8 8d 08 bf 18 4b 96 bf
       -0.009456208 -1.1114343 -0.53341436 -1.1741667
000010 12 f3 8b bf d4 98 d6 3d 9a 60 8f bf 8d 23 ea be
       -1.0933554 0.104783684 -1.1201355 -0.45730248
000020 d1 d1 29 bf 4a c0 f7 bd 61 86 53 bf 90 d5 35 be
       -0.6633578 -0.12097223 -0.8262692 -0.17757249
000030 21 ff 54 3e 6f c6 08 bf 1b 63 32 bf ac 7c 8d 3e
       0.20800449 -0.53427786 -0.6968247 0.2763418
000040 8f 3a 77 bf 83 4e 49 3e ee fd 35 bf 8b e5 a6 3d
       -0.9657373 0.19658856 -0.7109059 0.081492506
000050 c2 f0 4e bf 57 58 fd be 7c 64 c8 bf 54 9b 04 be
       -0.8083612 -0.4948146 -1.5655665 -0.12949878
000060 7d 00 79 bf f4 7a c1 be e0 f8 0f 3e c3 a4 b5 bd
       -0.9726637 -0.37789118 0.14059782 -0.088693164
000070 6a 01 33 bf 0f 3c 8e 3e b4 d4 fc be ee 69 17 be
       -0.6992403 0.27780196 -0.4938103 -0.14786503
000080 ab 8f 20 bd 60 61 8b bf 34 0d 1c bf 1f 2d 05 bc
       -0.039199512 -1.0889091 -0.60957646 -0.0081284335
000090 12 63 0c bf 36 6e 6e bf c1 ff 43 3e 30 c0 99 bf
       -0.5483867 -0.9313692 0.19140531 -1.2011776
0000a0 f1 a3 0b 3e ea 9b 23 bf fe 89 b1 bf d9 0a 8f 3e
       0.13636757 -0.6390978 -1.3870237 0.27937964
0000b0 12 81 ca be a0 21 0d c0 d3 5a 08 bf 3b 5b e3 3d
       -0.39551598 -2.2051773 -0.53263587 0.11101385
0000c0 dd 24 45 3e 1f 87 43 bf f9 f7 c7 bd 54 af 0a bf
       0.19252343 -0.76378053 -0.09764094 -0.5417378
0000d0 74 dd c5 bf 6e d6 9e 3e e2 e4 30 3d 78 bc 8b bd
       -1.5458207 0.31022972 0.04318703 -0.06823057
0000e0 10 db fd be 21 19 93 bc 00 bf cd 3d 2f 15 81 3e
       -0.49581194 -0.017956318 0.10046196 0.25211474
0000f0 fb d0 24 3e 48 9e 49 bf b6 e5 01 c0 9e 78 48 bf
       0.16095345 -0.78757143 -2.0296454 -0.7830905
000100 3a d5 e5 bd fa e8 b8 be 68 72 0c 3e 91 e5 42 3e
       -0.1122231 -0.36115247 0.13715518 0.19032885
000110 39 17 08 3e 8e 2f 26 bf 7f af 2f bf 1b d8 ae be
       0.13290109 -0.6491631 -0.6862716 -0.3414925
000120 cf 11 72 3e fb f1 58 be 0f a0 4c be 63 74 71 bf
       0.23639606 -0.21186058 -0.19982933 -0.9431822
000130 e2 ad be 3e 6f 70 af 3e 74 02 18 3e 23 32 44 bf
       0.37242037 0.34265468 0.14844686 -0.76639
000140 a7 75 8e bd 49 a2 30 3e 06 02 62 3c 9e 02 b0 bd
       -0.06956034 0.17249407 0.013794428 -0.08594249
000150 28 32 94 bf 90 36 de be 53 84 86 bf d7 17 1d bf
       -1.1577806 -0.43401003 -1.0509132 -0.613645
000160 4e aa 3e 3e 59 75 bc 3e 40 04 97 bf 6d 8b 7f 3e
       0.18619654 0.3680828 -1.1798172 0.2495553
000170 12 a5 76 3e 4c 15 3a bf 43 15 9c bf e1 a9 4c bf
       0.24086407 -0.72688746 -1.2193989 -0.79946715
000180 40 aa 8e bf bc 69 76 be 09 72 ff bb 57 47 85 bf
       -1.1145706 -0.24063772 -0.0077955765 -1.0412396
000190 f1 fe 4d bf 39 33 38 bf 1f dd 02 3d ab 04 16 bf
       -0.80467135 -0.7195316 0.03194916 -0.5860087
0001a0 02 04 53 bf d7 a4 14 bf 6c d8 f8 bc 97 44 86 bf
       -0.8242799 -0.58064026 -0.030376635 -1.0489682
0001b0 a3 d4 70 3e 39 46 cc 3c 76 27 07 3e ec bc 19 3e
       0.23518614 0.024935829 0.13198647 0.15013474
0001c0 0a fb 0d bf e8 5a 8d bf 1e dc 5d bf 3e 97 68 bf
       -0.5546118 -1.1043367 -0.86664 -0.9085578
0001d0 6b 30 47 3e d3 cf a2 be 89 82 0a be c8 1e eb bc
       0.19452064 -0.31799182 -0.13526358 -0.028701201
0001e0 0c 5e 9c be e7 ce 78 bf a5 e5 81 bf 8e be 1e c0
       -0.30540502 -0.9719071 -1.0148207 -2.4803805
0001f0 d0 c6 53 bf b5 41 79 be d6 d6 4f be cc 7e 03 be
       -0.8272524 -0.24341471 -0.20296797 -0.12841338
000200 ad aa 31 3d af be c4 bf 92 6a 95 bf 91 f6 99 bf
       0.04337566 -1.5370692 -1.1673148 -1.2028371
000210 9d ae 95 be 12 20 b1 bf 56 d7 dc be 99 1f 5e bf
       -0.29234782 -1.3837912 -0.43133038 -0.86766964
000220 1a d1 e0 be 86 6f 2c 3e 45 3c 60 be 54 ab ac be
       -0.43909532 0.16839418 -0.21897991 -0.33724463
000230 cb c9 82 3e 34 00 bd bf b9 98 69 bf 38 df ac 3d
       0.2554458 -1.4765687 -0.9124866 0.08441013
000240 35 41 3e bf 8a d8 39 be 89 07 31 bf fb 1c 8f be
       -0.7431825 -0.1814901 -0.6915212 -0.27951798
000250 9f 38 86 bf fe c2 d0 ba 57 6b f6 be 9d f3 0a c0
       -1.0486029 -0.0015927253 -0.4812877 -2.171119
000260 04 23 2d bf 5d 1e ab be de 54 2b bf d7 dd 02 3e
       -0.67631555 -0.33421603 -0.6692637 0.12779938
000270 90 31 5d bf 3a aa 2c 3d 63 4f f5 be 08 3c 15 bf
       -0.8640375 0.04215453 -0.4791213 -0.58294725
000280 d6 89 d9 bf 7d 08 23 bf 98 70 a3 bd 40 bb 5d bf
       -1.6995189 -0.6368483 -0.0798046 -0.86613846
000290 12 e4 b9 be d4 ca cf be 55 0b ec bf 76 a4 44 bd
       -0.36306816 -0.40584433 -1.8440958 -0.048008405
0002a0 22 70 90 bf 82 31 64 3e 74 74 c1 bf 36 8f 72 3e
       -1.128422 0.2228451 -1.5113664 0.23687443
0002b0 d5 40 49 bf 77 ab e4 be 7d 0a 91 bd cc 5d 2b bf
       -0.7861455 -0.44662067 -0.070820786 -0.6694
0002c0 e2 d9 91 bf af 90 37 bf 04 b7 19 bf d4 9e c3 bf
       -1.1394618 -0.71705145 -0.60044885 -1.5282845
0002d0 2d 05 74 bf 78 a8 8e 3e e2 bc 6c be 83 29 56 be
       -0.953204 0.27862906 -0.23118928 -0.20914273
0002e0 8b f6 90 3e 1c d3 06 be 3d 11 86 bf d5 1c b8 be
       0.28313097 -0.1316647 -1.0474011 -0.35959497
0002f0 d6 e3 42 bc 92 b3 40 3d 7e 37 ac be cf 9b 8f bd
       -0.011895141 0.04704625 -0.33636087 -0.0701214
000300 1c 4d c8 bf 9e d1 4d bf 35 29 33 be f0 13 23 bf
       -1.5648532 -0.80397975 -0.17496188 -0.637023
000310 81 17 6e be d3 cd 20 3d 59 bc 14 bf c1 57 6e bf
       -0.23251154 0.03925879 -0.58099896 -0.9310265
000320 19 48 9b be ca a6 d6 bd 24 6e 67 bf b4 3a 15 bf
       -0.30328444 -0.10481031 -0.90402436 -0.582927
000330 5b a1 95 bf cd 6a c3 bf 58 3b 6e bf 57 94 b6 be
       -1.1689867 -1.5266968 -0.930593 -0.3566005
000340 37 41 0a be 54 9e b5 be bd 5f 62 bf 58 15 30 bf
       -0.1350144 -0.35472357 -0.88427335 -0.6878257
000350 ad e9 b3 be 7c af be 3e 9a 5c e4 3e d1 b6 7d bd
       -0.35139218 0.3724326 0.446019 -0.061941925
000360 d9 bb 0d bf 2c 08 db bf 16 ed 78 bf 4f 7f 55 bf
       -0.5536476 -1.7111869 -0.97236764 -0.8339738
000370 3c 4a 92 3e ce 58 88 bf 0c c5 a8 bd 8a 2d 58 bf
       0.2857226 -1.0652101 -0.08240709 -0.8444449
000380 82 c2 82 bf 4f 6b 33 be 23 e3 49 bd b7 98 50 be
       -1.0215609 -0.17521404 -0.04928888 -0.20370756
000390 2f c8 29 bf cc 51 46 bf 71 11 58 3e 80 32 cf be
       -0.6632108 -0.7746856 0.21100403 -0.40468216
0003a0 a0 c9 b5 3d bb aa 87 bf 33 f0 cc bf 18 d9 31 3e
       0.088763475 -1.0598978 -1.6010803 0.17367971
0003b0 9c 88 ba be 16 04 1c c0 3b 05 28 c0 11 d9 9e be
       -0.3643235 -2.4377494 -2.6253192 -0.31024984
0003c0 e0 bd c5 bf 18 eb 8f 3d e0 2c 98 3e 7c 5d 0a bf
       -1.544857 0.070272624 0.29721737 -0.54048896
0003d0 ad 96 bf be e3 bf 32 bf 34 02 4a bf e9 bc 40 bf
       -0.37419644 -0.69824046 -0.7890961 -0.75288254
0003e0 ea 1e e5 3e a4 47 0a bf 4f 6b b9 be 1e 99 93 bf
       0.44750148 -0.54015565 -0.36214682 -1.1531103
0003f0 f8 cc f0 be ee fb 7a bf bc fa 9d bf dc 5e 14 bf
       -0.4703138 -0.98040664 -1.2342143 -0.57957244

dense_3/MatMul;deep_fm/StatefulPartitionedCall/StatefulPartitionedCall/dense_3/MatMul i1 [3610, 1]
000000 1d 05 0a 09 0f 03 ff f4 07 08 02 10 fe fd f5 f2
       29 5 10 9 15 3 -1 -12 7 8 2 16 -2 -3 -11 -14
000010 07 05 04 0d ff f4 01 ff 06 ec 18 05 07 0c 07 f5
       7 5 4 13 -1 -12 1 -1 6 -20 24 5 7 12 7 -11
000020 fd fb f9 f5 02 01 0d 17 03 fb 0a fb 04 fa f0 f8
       -3 -5 -7 -11 2 1 13 23 3 -5 10 -5 4 -6 -16 -8
000030 03 00 06 f4 09 05 05 04 f4 fd 04 fe 00 03 09 04
       3 0 6 -12 9 5 5 4 -12 -3 4 -2 0 3 9 4
000040 fc f9 07 05 00 f9 02 f2 f9 02 f9 ff 04 fb fa f2
       -4 -7 7 5 0 -7 2 -14 -7 2 -7 -1 4 -5 -6 -14
000050 ed 0c 03 09 f9 02 f5 fa fc 01 06 0a 0d 04 fc fe
       -19 12 3 9 -7 2 -11 -6 -4 1 6 10 13 4 -4 -2
000060 fe fd 02 08 fd 08 fe 01 01 ff 0b 09 05 ff f8 fd
       -2 -3 2 8 -3 8 -2 1 1 -1 11 9 5 -1 -8 -3
000070 f7 ff 04 09 00 06 09 04 fc f4 f2 fa fc ff fa ff
       -9 -1 4 9 0 6 9 4 -4 -12 -14 -6 -4 -1 -6 -1
000080 f2 fb 00 05 fe f6 02 06 04 02 fe ff 00 ff 0b 03
       -14 -5 0 5 -2 -10 2 6 4 2 -2 -1 0 -1 11 3
000090 f5 fd fb 00 f9 ff fe 00 08 06 ff 06 ff 02 0a 01
       -11 -3 -5 0 -7 -1 -2 0 8 6 -1 6 -1 2 10 1
0000a0 fb 09 fb fd f8 ff fe 03 f6 04 06 0c 02 03 00 02
       -5 9 -5 -3 -8 -1 -2 3 -10 4 6 12 2 3 0 2
0000b0 0c f7 fd 02 fb 00 f8 f6 03 09 0a fc 00 01 f8 fb
       12 -9 -3 2 -5 0 -8 -10 3 9 10 -4 0 1 -8 -5
0000c0 fd ff 00 f8 02 fd 0d fb 0b fe 00 fc 07 0c fe ff
       -3 -1 0 -8 2 -3 13 -5 11 -2 0 -4 7 12 -2 -1
0000d0 01 fc f8 02 05 09 fa 03 02 f6 06 00 f5 09 06 f9
       1 -4 -8 2 5 9 -6 3 2 -10 6 0 -11 9 6 -7
0000e0 00 01 f6 00 0c 02 fe 01 00 fd fe 03 fb 00 02 fd
       0 1 -10 0 12 2 -2 1 0 -3 -2 3 -5 0 2 -3
0000f0 ff fd 05 fd 02 f9 fe 02 0d f8 fa ff 02 0c fd 01
       -1 -3 5 -3 2 -7 -2 2 13 -8 -6 -1 2 12 -3 1

deep_fm/1007142 f4 [19, 32]
000000 e9 b7 55 bd c3 49 bc bc e7 44 e7 bc ae 2f 43 bd
       -0.052177344 -0.022984391 -0.028231097 -0.047652893
000010 57 f3 95 bb ba 25 ad bd 57 ef 4f be 71 18 20 3d
       -0.0045761275 -0.084544614 -0.20306145 0.03908581
000020 56 6b c8 3e 8f e8 a9 be 59 f5 78 3e 6f f6 00 3e
       0.3914439 -0.3318524 0.24312343 0.12594007
000030 5c ba 01 3c 27 57 ed b9 6a 69 69 bd b0 92 ce 3e
       0.007917967 -0.00045269096 -0.056985296 0.4034629
000040 bf 0d 09 be 7a 11 cb bd 58 a5 96 3d 00 3b 1c be
       -0.1338415 -0.09915443 0.073557556 -0.15256882
000050 ed ff 57 bd e0 ac 3b be cb c9 ab be b7 2d 12 3e
       -0.052734304 -0.18327665 -0.33552393 0.14275251
000060 8e cd 80 3e a6 f6 0f be e3 2b 14 be a7 f9 ef 3d
       0.25156826 -0.14058933 -0.14469866 0.11717539
000070 4c e9 ab bd f4 43 3b bd f7 60 65 3e 96 e3 17 be
       -0.08394107 -0.045719102 0.2240027 -0.14832911
000080 5b 21 c9 3d 5b f1 54 bd d6 1d 89 be 71 83 b2 3c
       0.09820815 -0.051987987 -0.26780576 0.021791192
000090 e5 fb 13 be 3e e3 e3 3d 58 a1 03 3e f0 ef d3 3e
       -0.14451559 0.111273274 0.12854517 0.41393995
0000a0 60 f4 bf be 11 7d 45 be 88 77 e8 3c 52 55 20 3f
       -0.3749113 -0.1928599 0.02837731 0.6263019
0000b0 e1 e6 7e bd bf c4 5b be 3e b6 82 3d ff ea 88 bd
       -0.062231902 -0.21461771 0.06382416 -0.06685447
0000c0 3e 05 db bd 4a 11 04 3c 81 20 c2 3d ce 21 01 bf
       -0.10694359 0.008060763 0.09478856 -0.50442207
0000d0 c1 98 46 bd 1e 99 9e 3e 2d b8 b4 3e 88 d3 73 be
       -0.04848552 0.30976194 0.35296765 -0.23811162
0000e0 9b 4f 41 be 09 66 b8 be 99 2b 0f be d5 20 26 3e
       -0.18878023 -0.36015347 -0.13981475 0.16223462
0000f0 52 ad 09 be 24 6a c4 bd 00 a0 17 3f 64 8f 07 3f
       -0.13445023 -0.09590557 0.59228516 0.5295317
000100 05 e4 58 3e d8 77 9e 3d b3 50 c2 3e 70 05 24 3e
       0.21180733 0.07737702 0.37952194 0.16017699
000110 da 27 a5 3c 41 93 27 3e 79 ae e1 3d 50 af 85 3d
       0.020160604 0.16364767 0.11019606 0.06527579
000120 54 42 5b 3e 13 57 80 3d be f1 91 be fb b9 48 3e
       0.21412021 0.06266608 -0.28504747 0.19602196
000130 d4 e6 2d 3e da d3 e9 3d d3 73 0b be 93 48 55 3e
       0.16982585 0.114173606 -0.13618402 0.20828466
000140 43 94 d3 ba 68 ea 42 3e 8e 28 b8 3d be 7d 83 3c
       -0.0016142208 0.19034731 0.0899211 0.01605117
000150 37 88 74 bd 90 c3 ad 3d 78 05 2f 3e eb 7f a2 3d
       -0.059700217 0.08484566 0.1709193 0.07934555
000160 f9 01 e4 bb 50 88 97 bc ac 41 dc 3e ef c9 8e bc
       -0.006958243 -0.018497616 0.43018854 -0.017430274
000170 07 0b a7 be eb 26 05 3e 79 e3 2b be 65 94 26 be
       -0.326256 0.13003127 -0.16785993 -0.16267546
000180 cb 76 f1 bb af 25 ef 3d f2 21 1a bd e0 af 89 be
       -0.0073688976 0.116771095 -0.03763003 -0.26891994
000190 96 3b f5 3e 93 9d 83 bc cd e1 84 bd dd 58 ed bd
       0.47897023 -0.016066348 -0.064883806 -0.11589215
0001a0 f6 ec c8 be ba 05 1e be 70 8f 1a bf 95 aa 13 bf
       -0.39243287 -0.15431872 -0.6037512 -0.5768216
0001b0 84 62 81 be 7b 60 5e 3d 03 f4 13 be b4 b6 40 bf
       -0.25270474 0.05429123 -0.14448552 -0.7527878
0001c0 77 6f e8 3c bf e4 f8 3b e8 cd 8c 3e ad 11 89 be
       0.028373463 0.007595628 0.27500844 -0.26771298
0001d0 77 52 7b bd ee 8f 0b 3e 86 c6 10 3e c9 38 40 3e
       -0.06135794 0.13629124 0.1413823 0.18771662
0001e0 2d 57 85 3e 4c 51 ee be 98 03 38 be 93 93 c5 bd
       0.26043072 -0.465464 -0.17970121 -0.09647288
0001f0 6f 2c d0 3e d8 08 ff 3b ea 1c 13 bf 9e 7e 1f bf
       0.406589 0.0077830367 -0.57465994 -0.6230258
000200 a6 a8 37 be dd e1 7a 3d d3 45 7d 3d 2e 8a 73 3e
       -0.17935428 0.061250556 0.061834168 0.2378318
000210 4b 14 36 3d 7c 6b 50 3d 4d f3 f5 3d 94 48 16 3e
       0.044452947 0.050883755 0.120092966 0.14676124
000220 02 5a 67 3b d9 0c 3f 3e 22 5d f5 bd 8e 2c 57 3d
       0.0035301452 0.18657245 -0.11980654 0.052532725
000230 0c 92 39 be a7 97 ea 3e b6 61 ee 3c 60 e0 5a 3e
       -0.18122119 0.45818827 0.029099327 0.21374655
000240 55 fd 6d bd 70 b0 f1 bd a4 ab 3e be 5e 6d 86 3d
       -0.058102924 -0.11801231 -0.18620163 0.06563829
000250 c7 58 37 3d e6 87 a2 bd 49 b5 1b 3d 3d 4d a6 bd
       0.0447624 -0.07936077 0.038014684 -0.08120201
000260 f0 7d 59 3d fe 40 53 3d ec 29 71 3e 1c 30 cd be
       0.05309862 0.051575653 0.23551148 -0.40075767
000270 9d 32 b7 3d f1 ab 0e be e0 42 bc 3d 35 04 47 be
       0.089452006 -0.13932778 0.09192443 -0.19435199
000280 33 1d 0a 3e 7c cb 6e bc 1c 8e bb 3c 33 d2 5a be
       0.13487701 -0.014574882 0.022894911 -0.21369247
000290 c6 fb a8 3e 0d 66 3f be 1d 65 a7 3d fc b0 1d bd
       0.33004588 -0.18691273 0.08173583 -0.038498864
0002a0 09 72 4b bd 0c a4 23 3e eb bc 4d be b8 b6 43 3e
       -0.0496693 0.15980548 -0.20091598 0.1911267
0002b0 82 22 4a 3e 9d 19 89 be 0e 12 15 3d a0 df dc 3c
       0.19739726 -0.26777354 0.03639417 0.026962101
0002c0 00 40 18 3e fe ec 44 3e 4b aa 1d be 1a f4 33 3e
       0.14868164 0.1923103 -0.15396993 0.17573586
0002d0 a3 8e 58 3e 64 05 8d be 3b 46 4d bd 16 24 4e bd
       0.21148162 -0.27543175 -0.050115805 -0.050327383
0002e0 28 08 17 3e e5 18 37 be cd f5 25 3e 9c b1 22 3a
       0.14749205 -0.1788059 0.16207047 0.00062062754
0002f0 2f 14 c0 3e 70 d6 15 bd a1 f3 bd 3d 60 af 12 3e
       0.375154 -0.036581457 0.09274984 0.14324713
000300 6b 02 af 3e cf 78 f9 3d 72 89 8b bd 44 bc 26 be
       0.34181532 0.121812455 -0.06813325 -0.16282755
000310 96 4a 8e 3d a8 b1 25 be ba a2 28 be 06 29 2d be
       0.0694782 -0.16181052 -0.16468325 -0.1691018
000320 7e a0 90 3e 69 33 ee bd cb b2 e5 3e e5 b8 e1 3d
       0.28247446 -0.116308995 0.4486297 0.11021594
000330 00 ab 6f 3c 39 ab ba 3e 91 46 21 3d 27 1c 31 be
       0.014628172 0.36458758 0.039373938 -0.17295896
000340 ee 91 58 bc 9d dd 84 be 02 3e 26 3d db 1c 90 bb
       -0.013218386 -0.25950328 0.04058648 -0.004397971
000350 eb 90 f6 3d 12 27 8c 3e ba 27 a1 3e ef f5 28 be
       0.1203936 0.27373558 0.3147562 -0.16500066
000360 37 3f 2a 3e 70 69 14 3d 45 55 e3 3d e6 df af 3d
       0.16625677 0.036233366 0.11100248 0.08587627
000370 28 7b 32 be 5c 94 a1 3d 74 6e 3e 3e bd 31 3b be
       -0.17429793 0.078896254 0.18596822 -0.18280692
000380 6a 63 5b 3e 7b c0 9b bd 67 b1 97 3e 0e 7a b3 3e
       0.21424642 -0.07605072 0.29627535 0.35054058
000390 46 23 ab be 57 b5 f7 3d 63 e9 f4 bd f4 0a 0c 3d
       -0.3342535 0.12095135 -0.119585775 0.034190133
0003a0 3e 30 f8 3d 35 ad ec be 6f 9d 7c be 98 2d f4 3d
       0.121185765 -0.46225896 -0.24669431 0.11922759
0003b0 9c 5d 87 3e 77 2c a9 3e 2d 4d 71 3d 59 72 d9 be
       0.26438606 0.33041736 0.05891149 -0.42470053
0003c0 ac cf 99 3e 90 13 11 bf b5 11 39 3c c1 f2 1c bc
       0.30041254 -0.56670475 0.011295726 -0.009579361
0003d0 8e a6 a1 be 98 aa a7 bd 0e 93 11 be 79 b2 30 3e
       -0.31572384 -0.08186835 -0.14216253 0.17255582
0003e0 b6 9b 07 be 53 44 91 3e 05 8d 90 be aa 78 b9 bd
       -0.13242993 0.2837244 -0.2823259 -0.09056218
0003f0 58 70 10 3f c5 7f 6a bc d1 e9 4b be e4 1d a4 3e
       0.5642142 -0.014312689 -0.19913413 0.32054055

deep_fm/1007140 i1 [500, 32]
000000 05 00 01 09 fa fd 03 ff fd 04 ff ff fc f9 01 fa
       5 0 1 9 -6 -3 3 -1 -3 4 -1 -1 -4 -7 1 -6
000010 03 01 ff ff 04 00 f7 fa 02 ff 06 02 fc 00 03 fe
       3 1 -1 -1 4 0 -9 -6 2 -1 6 2 -4 0 3 -2
000020 05 03 04 02 fd 04 02 07 fe fc fe 00 00 f6 fd fd
       5 3 4 2 -3 4 2 7 -2 -4 -2 0 0 -10 -3 -3
000030 03 0e fd fa 01 00 04 03 05 fc 02 f7 00 02 04 ff
       3 14 -3 -6 1 0 4 3 5 -4 2 -9 0 2 4 -1
000040 01 fe fe fb 04 03 01 05 fa fd 0b 04 f9 f5 fc fd
       1 -2 -2 -5 4 3 1 5 -6 -3 11 4 -7 -11 -4 -3
000050 01 01 09 f9 fc ff 03 02 ff 03 fc f9 ff 0d fc fe
       1 1 9 -7 -4 -1 3 2 -1 3 -4 -7 -1 13 -4 -2
000060 f7 ff 04 08 f4 08 06 02 02 1a 10 05 05 05 ff 02
       -9 -1 4 8 -12 8 6 2 2 26 16 5 5 5 -1 2
000070 07 fa fc 06 06 fa 12 01 07 fe eb 03 f8 fd 01 00
       7 -6 -4 6 6 -6 18 1 7 -2 -21 3 -8 -3 1 0
000080 05 01 00 f9 02 0e fb 02 00 01 01 fc fe 00 fd f6
       5 1 0 -7 2 14 -5 2 0 1 1 -4 -2 0 -3 -10
000090 05 fd ff 02 02 02 06 01 fc ff 01 fe 03 fd 00 fe
       5 -3 -1 2 2 2 6 1 -4 -1 1 -2 3 -3 0 -2
0000a0 f5 04 01 00 fb 06 ff fb 02 04 fc 04 fd 08 ff 03
       -11 4 1 0 -5 6 -1 -5 2 4 -4 4 -3 8 -1 3
0000b0 f8 ff fd fa 03 f6 f6 02 05 02 fd ff 02 02 07 fc
       -8 -1 -3 -6 3 -10 -10 2 5 2 -3 -1 2 2 7 -4
0000c0 ff 03 fc ff 00 05 06 00 fe ff 07 fd fc 00 04 ff
       -1 3 -4 -1 0 5 6 0 -2 -1 7 -3 -4 0 4 -1
0000d0 00 00 04 ff 00 02 fc 00 fb 00 fd 02 ff ff 04 fd
       0 0 4 -1 0 2 -4 0 -5 0 -3 2 -1 -1 4 -3
0000e0 ff fd 00 01 05 05 fe 00 01 01 03 ff 00 04 ff fe
       -1 -3 0 1 5 5 -2 0 1 1 3 -1 0 4 -1 -2
0000f0 fd f7 01 fd 04 05 05 fc 00 01 f5 fe 01 02 00 04
       -3 -9 1 -3 4 5 5 -4 0 1 -11 -2 1 2 0 4

deep_fm/1007138 i1 [173, 32]
000000 f5 fe 04 f9 04 04 03 04 ff fe 08 0c fd 09 ff fb
       -11 -2 4 -7 4 4 3 4 -1 -2 8 12 -3 9 -1 -5
000010 f3 03 03 fb fd 03 f4 03 08 f9 eb 07 02 01 f7 ff
       -13 3 3 -5 -3 3 -12 3 8 -7 -21 7 2 1 -9 -1
000020 fe 05 fb fb fb 00 fc 04 fe 07 0d 02 0b 0c 06 01
       -2 5 -5 -5 -5 0 -4 4 -2 7 13 2 11 12 6 1
000030 08 01 fd 00 fe 07 04 07 fe fd f1 08 fe f6 01 08
       8 1 -3 0 -2 7 4 7 -2 -3 -15 8 -2 -10 1 8
000040 0d 07 f6 fc fe e9 04 02 14 f8 f2 fd fb eb 02 01
       13 7 -10 -4 -2 -23 4 2 20 -8 -14 -3 -5 -21 2 1
000050 05 fe f8 f4 03 f1 0e 0d f8 09 f7 18 e7 02 01 f9
       5 -2 -8 -12 3 -15 14 13 -8 9 -9 24 -25 2 1 -7
000060 08 03 f7 04 0a f9 eb f3 f4 fe fc 04 f4 0c 05 04
       8 3 -9 4 10 -7 -21 -13 -12 -2 -4 4 -12 12 5 4
000070 0d 01 f9 09 f9 00 fb 05 fa f3 ed f4 f7 ea 05 dd
       13 1 -7 9 -7 0 -5 5 -6 -13 -19 -12 -9 -22 5 -35
000080 fc f7 05 04 fa 05 fe f8 01 11 06 fe f6 07 06 08
       -4 -9 5 4 -6 5 -2 -8 1 17 6 -2 -10 7 6 8
000090 fc 06 03 f5 01 07 ff ed 07 09 06 05 e8 06 05 09
       -4 6 3 -11 1 7 -1 -19 7 9 6 5 -24 6 5 9
0000a0 02 0a fa fa 0a 05 ee 00 f4 09 fe fb 01 03 03 18
       2 10 -6 -6 10 5 -18 0 -12 9 -2 -5 1 3 3 24
0000b0 05 01 fa fa eb 11 22 f3 fc 01 04 f7 0d 03 03 04
       5 1 -6 -6 -21 17 34 -13 -4 1 4 -9 13 3 3 4
0000c0 f6 f8 fc 08 07 f8 09 f1 07 f4 f6 05 00 0b 0a fd
       -10 -8 -4 8 7 -8 9 -15 7 -12 -10 5 0 11 10 -3
0000d0 fb fe 02 f3 06 fb 08 09 f4 fe fb fc fe fa ff 04
       -5 -2 2 -13 6 -5 8 9 -12 -2 -5 -4 -2 -6 -1 4
0000e0 fe 01 f0 06 fc 09 08 0e fe f8 03 05 0c 18 f6 00
       -2 1 -16 6 -4 9 8 14 -2 -8 3 5 12 24 -10 0
0000f0 09 02 03 06 fc 05 ff 00 00 05 07 fb fd 02 06 01
       9 2 3 6 -4 5 -1 0 0 5 7 -5 -3 2 6 1

deep_fm/1007136 i1 [203, 32]
000000 01 00 0d 0b fc 09 07 fd 0a 0c fb fd f5 0b fb 0a
       1 0 13 11 -4 9 7 -3 10 12 -5 -3 -11 11 -5 10
000010 08 f7 fc f6 04 f0 10 0b 05 f6 01 01 fe 09 f6 fe
       8 -9 -4 -10 4 -16 16 11 5 -10 1 1 -2 9 -10 -2
000020 19 f3 0c 10 fd 00 f8 f9 15 fb 08 f1 fa f8 04 06
       25 -13 12 16 -3 0 -8 -7 21 -5 8 -15 -6 -8 4 6
000030 f4 06 ef ec 09 e1 f8 08 15 f2 f0 f5 f9 0e fc ee
       -12 6 -17 -20 9 -31 -8 8 21 -14 -16 -11 -7 14 -4 -18
000040 06 05 06 06 db d8 13 06 1a d7 05 f3 1b e4 06 0b
       6 5 6 6 -37 -40 19 6 26 -41 5 -13 27 -28 6 11
000050 ff fe f8 1a f2 d7 09 16 f3 fb 14 14 0d e3 05 16
       -1 -2 -8 26 -14 -41 9 22 -13 -5 20 20 13 -29 5 22
000060 02 14 09 17 2d dc fb 0d 00 0a e5 e2 10 dc 1e 38
       2 20 9 23 45 -36 -5 13 0 10 -27 -30 16 -36 30 56
000070 09 f9 fb f2 e5 17 1a 84 f1 f9 e7 0e eb 02 03 10
       9 -7 -5 -14 -27 23 26 -124 -15 -7 -25 14 -21 2 3 16
000080 0e 26 fe 02 07 13 07 04 01 ee 01 fd 09 03 0a f0
       14 38 -2 2 7 19 7 4 1 -18 1 -3 9 3 10 -16
000090 0c 02 01 02 03 0b f5 fe df ee fa 03 12 fd 16 e5
       12 2 1 2 3 11 -11 -2 -33 -18 -6 3 18 -3 22 -27
0000a0 03 f1 20 16 0f fe f9 f3 f8 dc 11 1c ed fa f9 f0
       3 -15 32 22 15 -2 -7 -13 -8 -36 17 28 -19 -6 -7 -16
0000b0 08 f2 f1 fb fd 06 fd 05 10 fb ed 07 06 1d f4 fc
       8 -14 -15 -5 -3 6 -3 5 16 -5 -19 7 6 29 -12 -4
0000c0 16 ef e7 0f e1 01 fc 10 97 f8 20 fc 08 14 ef 16
       22 -17 -25 15 -31 1 -4 16 -105 -8 32 -4 8 20 -17 22
0000d0 ce f3 12 33 f3 21 4d 07 09 ad f4 e2 d9 fc 07 e3
       -50 -13 18 51 -13 33 77 7 9 -83 -12 -30 -39 -4 7 -29
0000e0 20 ee df 17 de 04 02 13 91 fe 1b f8 fa 1a f7 18
       32 -18 -33 23 -34 4 2 19 -111 -2 27 -8 -6 26 -9 24
0000f0 cb f8 0c 34 f6 1c 43 1e 0c a0 ee e2 e1 f2 04 e1
       -53 -8 12 52 -10 28 67 30 12 -96 -18 -30 -31 -14 4 -31

deep_fm/1007134 i1 [547, 32]
000000 f4 f9 04 fa fa 04 10 05 00 07 f5 f4 fe f4 00 f0
       -12 -7 4 -6 -6 4 16 5 0 7 -11 -12 -2 -12 0 -16
000010 f5 fb 01 0a 0c f3 e7 03 0b ff f3 fe 07 16 f3 fe
       -11 -5 1 10 12 -13 -25 3 11 -1 -13 -2 7 22 -13 -2
000020 02 04 0a 0b 13 10 10 13 11 f7 0e 03 09 07 08 eb
       2 4 10 11 19 16 16 19 17 -9 14 3 9 7 8 -21
000030 f1 fd f1 0c ed f8 fe 12 0d fc 0b fc 0a fa f4 f0
       -15 -3 -15 12 -19 -8 -2 18 13 -4 11 -4 10 -6 -12 -16
000040 f8 02 fa fb 03 15 0d 10 fc fa e7 04 08 0b f2 0a
       -8 2 -6 -5 3 21 13 16 -4 -6 -25 4 8 11 -14 10
000050 fa fd 06 04 f9 f0 e8 0c 03 fe 1d f1 17 04 10 fd
       -6 -3 6 4 -7 -16 -24 12 3 -2 29 -15 23 4 16 -3
000060 0b f7 06 0e 04 e4 fd 06 fc 03 fc e9 ff 0c 0e 09
       11 -9 6 14 4 -28 -3 6 -4 3 -4 -23 -1 12 14 9
000070 1b ed f1 e8 0e e7 f6 03 16 13 20 10 0d 03 fa f2
       27 -19 -15 -24 14 -25 -10 3 22 19 32 16 13 3 -6 -14
000080 f6 f7 ff 0a fb 04 19 1c 22 e4 ee f3 12 23 fb 1b
       -10 -9 -1 10 -5 4 25 28 34 -28 -18 -13 18 35 -5 27
000090 fd e7 fa 07 d6 f7 0d 17 0f f9 0c ff 09 11 f3 18
       -3 -25 -6 7 -42 -9 13 23 15 -7 12 -1 9 17 -13 24
0000a0 ed 04 09 f8 02 fe 10 14 09 e9 e8 fe 1e 10 fb 16
       -19 4 9 -8 2 -2 16 20 9 -23 -24 -2 30 16 -5 22
0000b0 02 e1 f1 08 f3 fa 09 09 16 f3 f3 f8 08 00 02 f3
       2 -31 -15 8 -13 -6 9 9 22 -13 -13 -8 8 0 2 -13
0000c0 10 fc 02 fe 04 f6 06 fb f7 12 0c fe 0b 11 fa fc
       16 -4 2 -2 4 -10 6 -5 -9 18 12 -2 11 17 -6 -4
0000d0 fb fd fe fc ff f8 f8 02 f5 ef f7 ff ff fc 00 fe
       -5 -3 -2 -4 -1 -8 -8 2 -11 -17 -9 -1 -1 -4 0 -2
0000e0 f2 20 f5 08 fa 14 f7 08 ef e3 f9 f2 07 21 11 ec
       -14 32 -11 8 -6 20 -9 8 -17 -29 -7 -14 7 33 17 -20
0000f0 f0 db 0d e2 f7 08 eb fd 0e 04 eb 0d ef fc fc 17
       -16 -37 13 -30 -9 8 -21 -3 14 4 -21 13 -17 -4 -4 23

deep_fm/1007132 i1 [1004, 32]
000000 09 35 e8 17 0a d1 ea 01 d8 cf 41 c1 06 e7 0f 01
       9 53 -24 23 10 -47 -22 1 -40 -49 65 -63 6 -25 15 1
000010 0b fa cc 27 30 0a 40 20 f7 29 d8 01 da 59 3a f9
       11 -6 -52 39 48 10 64 32 -9 41 -40 1 -38 89 58 -7
000020 e1 bc 0a cc dd 2e 1c 1f 1c 3b bc 46 b9 14 1a 03
       -31 -68 10 -52 -35 46 28 31 28 59 -68 70 -71 20 26 3
000030 d4 10 2c ef 1e fc c4 07 09 c4 0a df 3e ba d4 27
       -44 16 44 -17 30 -4 -60 7 9 -60 10 -33 62 -70 -44 39
000040 03 f5 01 fb e8 0a f6 fc f1 06 f3 ec 18 f2 05 f9
       3 -11 1 -5 -24 10 -10 -4 -15 6 -13 -20 24 -14 5 -7
000050 06 e5 05 f9 fc 0b 03 f7 11 09 08 cf 0f 0c 0b f9
       6 -27 5 -7 -4 11 3 -9 17 9 8 -49 15 12 11 -7
000060 08 fc f5 23 0b 0b fe 18 00 09 04 17 e7 04 03 05
       8 -4 -11 35 11 11 -2 24 0 9 4 23 -25 4 3 5
000070 e0 02 eb 08 f7 01 1d f4 03 10 11 e1 f2 f7 e5 eb
       -32 2 -21 8 -9 1 29 -12 3 16 17 -31 -14 -9 -27 -21
000080 f2 e9 ff f7 e9 e9 f2 07 e5 0c 13 de d0 04 d3 54
       -14 -23 -1 -9 -23 -23 -14 7 -27 12 19 -34 -48 4 -45 84
000090 15 d9 f9 e1 00 05 0e f6 11 fe 14 07 d1 e7 2a f4
       21 -39 -7 -31 0 5 14 -10 17 -2 20 7 -47 -25 42 -12
0000a0 04 12 0b 09 f1 09 ea ff 07 11 f4 04 fb 03 f8 00
       4 18 11 9 -15 9 -22 -1 7 17 -12 4 -5 3 -8 0
0000b0 fd 07 fa 03 07 10 04 fb 08 08 02 fe 03 02 05 f7
       -3 7 -6 3 7 16 4 -5 8 8 2 -2 3 2 5 -9
0000c0 0c 08 0b ed 19 12 f1 f2 03 1d 09 ec f8 09 08 00
       12 8 11 -19 25 18 -15 -14 3 29 9 -20 -8 9 8 0
0000d0 03 01 19 f5 fe 13 ff 15 25 32 02 09 08 10 f7 06
       3 1 25 -11 -2 19 -1 21 37 50 2 9 8 16 -9 6
0000e0 27 f2 02 e1 04 09 e5 f1 cf eb 21 e2 f1 ef f1 40
       39 -14 2 -31 4 9 -27 -15 -49 -21 33 -30 -15 -17 -15 64
0000f0 f3 fa ed ee e8 eb 23 28 09 f4 f7 0d f3 e4 f2 f0
       -13 -6 -19 -18 -24 -21 35 40 9 -12 -9 13 -13 -28 -14 -16

deep_fm/1007130 i1 [1004, 32]
000000 f3 09 f9 ff c6 03 1c dd ec 1f f9 fb 28 f5 26 ca
       -13 9 -7 -1 -58 3 28 -35 -20 31 -7 -5 40 -11 38 -54
000010 0a ef 15 3a 2c f7 00 7f dd ee 00 eb f6 3b 0b f7
       10 -17 21 58 44 -9 0 127 -35 -18 0 -21 -10 59 11 -9
000020 f7 30 ed e6 b1 eb 32 eb 11 f1 22 2b 54 ee 17 e5
       -9 48 -19 -26 -79 -21 50 -21 17 -15 34 43 84 -18 23 -27
000030 03 f7 e6 1a 29 f0 0e 78 eb 28 ff d5 ef ee ed 06
       3 -9 -26 26 41 -16 14 120 -21 40 -1 -43 -17 -18 -19 6
000040 fa 1c fe f6 cd fb f3 d2 c3 db 18 bd f7 24 fd e0
       -6 28 -2 -10 -51 -5 -13 -46 -61 -37 24 -67 -9 36 -3 -32
000050 18 ef ff 07 28 37 07 c9 02 05 05 e3 fc f0 09 fc
       24 -17 -1 7 40 55 7 -55 2 5 5 -29 -4 -16 9 -4
000060 f2 05 e7 10 20 e7 f3 ff cc fe f8 18 52 fc fd 04
       -14 5 -25 16 32 -25 -13 -1 -52 -2 -8 24 82 -4 -3 4
000070 11 16 14 ee 02 37 f2 e0 fc 11 1e d2 e8 24 da ea
       17 22 20 -18 2 55 -14 -32 -4 17 30 -46 -24 36 -38 -22
000080 eb 1d dc 0e d9 f8 25 f0 3f f5 07 e5 29 f9 2b e9
       -21 29 -36 14 -39 -8 37 -16 63 -11 7 -27 41 -7 43 -23
000090 2d 0e 02 d0 e8 e8 03 ce d2 db 1c f9 f7 13 1c 06
       45 14 2 -48 -24 -24 3 -50 -46 -37 28 -7 -9 19 28 6
0000a0 02 e8 00 07 bc fa f1 d9 19 f0 06 f2 09 e4 f8 f7
       2 -24 0 7 -68 -6 -15 -39 25 -16 6 -14 9 -28 -8 -9
0000b0 f3 00 18 2a 22 1a e2 d9 ef ff 06 10 00 cb fd fc
       -13 0 24 42 34 26 -30 -39 -17 -1 6 16 0 -53 -3 -4
0000c0 02 0a e7 ed fb 02 f0 d9 0d e3 eb ca e2 01 17 09
       2 10 -25 -19 -5 2 -16 -39 13 -29 -21 -54 -30 1 23 9
0000d0 01 f2 01 50 fe fe f6 13 ce e6 18 fa f8 f4 e2 e5
       1 -14 1 80 -2 -2 -10 19 -50 -26 24 -6 -8 -12 -30 -27
0000e0 e4 f4 c9 0e 18 e1 ff e4 59 f0 18 10 f2 13 ee e5
       -28 -12 -55 14 24 -31 -1 -28 89 -16 24 16 -14 19 -18 -27
0000f0 2e 07 1d e7 12 d7 07 fb eb ea 16 ef eb 25 de 14
       46 7 29 -25 18 -41 7 -5 -21 -22 22 -17 -21 37 -34 20
